ml_projects/snake_pygame/model/model.pth (torch, 16799 bytes, 4 tensors)

linear1.weight f4 [256, 11]
00000000: 9ef3 8c3e 6eda fcba b312 86bc 6d19 3ebe
00000010: 0314 893e 67a2 2f3e dc39 b43e 9f45 2c3e
00000020: 5a91 7ebe cc28 38be c801 b5be e6dd e2bd
00000030: dd45 1c3f 3eaa 0abf 3682 efbd b8a9 a73e
00000040: de71 263e 12ee cebe 7316 953e d8a4 d0bc
00000050: d82b 1f3e e1f4 b4be 971d 18bf 7424 543e
00000060: 7bb4 d9bd e6fa 0fbe f16b 89bd 15ff 1f3e
00000070: 1871 18be 7fb8 f73c 3bee ae3e aa9c 373e
00000080: ca67 e43d 7656 be3d afa1 c93e bfa3 5e3e
00000090: ad25 0abe 3354 babc 1a3b 393e 6760 9a3d
000000a0: 46f5 393e 2b11 1a3d 499d 2d3d b3e6 48bd
000000b0: a2ba 67be 2e24 c13e 8b0c 9abe a5ee 903d
000000c0: dc6c 9d3e a7b8 babe 6424 0b3a 9ab6 e53d
000000d0: ba2d 79be ec2a c43e 16bc e73d f7ea 0cbe
000000e0: 1cdf 8b3d ca74 27bf f570 8dbe 4c60 7b3e
000000f0: 7d5f 1dbe 5f5d 7fbe a823 073f 275f 83be
00000100: 84a4 9e3e 1e43 8b3e 889e e63c 9d15 063f
00000110: 6123 80be 6f50 0cba af32 5fbe 1a73 94bc
00000120: 2fa0 cbbe e9ad 943e 6a2d d7bc ab4a c4bd
00000130: 0bc0 103e 457a b53e 384d 763e 09a7 d93e
00000140: 31d0 3fbd 2f64 87be f484 103e e57f 06bd
00000150: de25 8ebe e690 64bc 39f0 b5bd b211 2ebc
00000160: 0efa a43e 71d2 bfbd 1020 c43e 70b5 163e
00000170: 1b39 6ebe b342 133e b19f 5fbd d6e6 a1bc
00000180: ef5f ab3e ed93 9a3d 100c c73e 1152 f23d
00000190: b16d 103e 1e0b b0be c4b5 4cbc 776f e9be
000001a0: c59e 08be a00a b9bd fcfd 873d 0d49 cf3e
000001b0: 3382 ec3d 737f 493d c4fa 41be b712 c73d
000001c0: e54f 7b3e 756e f03e 8f90 87bd 5cef c9be
000001d0: 9cc2 debe 9646 db3e 20ae b5be ddc8 593d
000001e0: 1867 31bf 5113 91be 1a90 0b3f 7425 17be
000001f0: 8452 623e 84a3 8f3e 8049 47bd 69cb 01bf
00000200: 211c 8e3e cb32 483e 7692 a8be 60bc eabe
00000210: 1fb2 49bc 5b10 463e 7773 203d ecbf c23d
00000220: ca2d cabe 4c3e 7dbd 5432 0a3d 2c25 b63d
00000230: 08c4 df3e cb0f 803e 4bc2 e03e 0ee6 09bd
00000240: 5ec5 f33e 25b7 013d d252 87be f472 b23e
00000250: 31ea 3ebe 3410 66be 28cb 063f 09b1 80be
00000260: 44eb c03e f457 d13e cbf8 063f bf5d 58be
00000270: 3a00 5f3e 6dd9 ac3e ce40 273e f30c 1bbe
00000280: 5967 bdbe 16a6 9bbe 5d79 93bd 9efa a33e
00000290: 6241 073f 1b62 85bd 3b88 193e b84c 08bf
000002a0: e905 33be 0c7d 183e 25e4 1e3e 2d59 5b3e
000002b0: 8302 0dbe 3314 7cbc 1dc5 9d3e 9c3c 0fbd
000002c0: 2e58 01bd 8900 103e db87 3f3e 9329 74be
000002d0: e2ab 7bbd f74f 99be 1c80 88be 30f9 a3be
000002e0: 6019 c8bb a58a b1bd 4067 49be 6d5b 883e
000002f0: 29c8 8a3d 1c0f 2f3d 18b6 253d 6c1c a6be
00000300: 2174 21be a5d3 b1be 9d9f 693e ff38 a7be
00000310: 2c8a b83e 3f7d ba3e b58c 1c3d bf1f 70be
00000320: 2b17 e33e 597a 86be 5e0e 0dbd 1d5c 8f3e
00000330: 801d 87be 15e8 d0be b894 913e bf8b 723d
00000340: 46ee 3bbe fda3 dd3e 0fb1 703c 5a4c 6cbc
00000350: 4629 b5bd 9adc 91be a79c a6be 08d2 b2bd
00000360: d6c3 9d3e e5ce fd3e d72c 123f f18f ac3e
00000370: 8bf4 40bd 5d46 9d3e 75ba afbd c9eb d23e
00000380: 5048 c4be e385 ac3e 1fc9 21be 378c 58be
00000390: 2078 1b3f a650 0abe e977 d43e eb2e 353e
000003a0: a858 363e 350d 533b ea87 94be e03a 96ba
000003b0: 1fc7 38bd e5df 8dbe 2467 ac3e 4cc7 8f3e
000003c0: 5639 bd3e c82f 753e 5137 413e 3cd8 6dbe
000003d0: e8cf 98be c024 8c3e 76e9 84be a09e d93e
000003e0: 27ab 8dbe f8b0 1cbe 7698 1fbf 0c31 2d3d
000003f0: 12f9 ebbe c489 1b3e 9bd7 ac3e 7443 ea3e
0.27529615 -0.0019291171 -0.016366338 -0.18564387 0.2677308 0.17151795 0.35200393 0.16823433
-0.24860135 -0.17984313 -0.3535292 -0.1107748 0.610441 -0.5416602 -0.11694758 0.32746673
0.16254374 -0.40416008 0.2911869 -0.025469229 0.15544069 -0.35343078 -0.5942015 0.20717031
-0.10630127 -0.14060554 -0.06710041 0.1562465 -0.14886892 0.030239342 0.3416613 0.17930856
0.11152609 0.09293835 0.39381167 0.21742152 -0.13490935 -0.022745227 0.18088952 0.075379185
0.1815997 0.03761403 0.042386327 -0.049048137 -0.22629789 0.37722915 -0.30087695 0.07076768
0.30747116 -0.36469004 0.0005307852 0.11216469 -0.2433385 0.38313997 0.113151714 -0.13761507
0.06829664 -0.6541258 -0.27625242 0.24548453 -0.15368457 -0.24937962 0.5278878 -0.25658533
0.3098489 0.27199644 0.028151765 0.5237673 -0.25026992 -0.0005352562 -0.21796678 -0.018121291
-0.39770648 0.29038933 -0.026266772 -0.09584554 0.14135759 0.35444847 0.24052894 0.4251025
-0.046829406 -0.26443622 0.14113218 -0.032836813 -0.27763265 -0.013950562 -0.088837095 -0.010624336
0.32222027 -0.093663104 0.38305712 0.1471765 -0.23263972 0.14380912 -0.054595653 -0.019763391
0.3347163 0.07547746 0.3887639 0.11832059 0.14104344 -0.34383482 -0.012494508 -0.45592853
-0.13341816 -0.0903523 0.066402406 0.4048542 0.11548271 0.04919381 -0.18943316 0.097203664
0.24542196 0.46959272 -0.06619369 -0.3944043 -0.4350785 0.4282729 -0.3548441 0.053170074
-0.69297934 -0.2833505 0.54516757 -0.14760381 0.2210179 0.2805444 -0.04865408 -0.50701004
0.27755836 0.19550626 -0.3292424 -0.45846844 -0.012310534 0.19342177 0.039172616 0.095092624
-0.3948806 -0.06182699 0.033739403 0.08893809 0.43704247 0.2501205 0.43898234 -0.033666663
0.47611517 0.0316688 -0.26430374 0.34853327 -0.18644024 -0.22467119 0.5265374 -0.25135067
0.37679493 0.40887415 0.5272338 -0.21129511 0.2177743 0.33759633 0.16333315 -0.15141658
-0.3699291 -0.3040015 -0.072008826 0.32027143 0.5283414 -0.06512853 0.14993374 -0.53242064
-0.17482723 0.14891452 0.15516718 0.21420737 -0.1377049 -0.015385675 0.30814448 -0.03496991
-0.031578235 0.14062704 0.18704168 -0.23843984 -0.061443217 -0.2994382 -0.2666024 -0.32026052
-0.0061065406 -0.086690225 -0.19668293 0.26632252 0.06776459 0.04273902 0.04045686 -0.3244356
-0.15766956 -0.34731784 0.22814794 -0.32660672 0.36042917 0.3642368 0.038220126 -0.2344961
0.44353613 -0.2626522 -0.03443753 0.27999964 -0.26389694 -0.40802065 0.28433776 0.059215304
-0.18352613 0.43289176 0.014690652 -0.0144225005 -0.08845763 -0.28488618 -0.3254139 -0.087314665
0.30813473 0.4957191 0.5709967 0.3370357 -0.047108214 0.30717745 -0.08580486 0.41195515
-0.3833642 0.33695897 -0.15799378 -0.21147238 0.6073017 -0.13507327 0.41497734 0.17693679
0.17807257 0.0032203917 -0.29009944 -0.0011461638 -0.04511177 -0.2770988 0.3367244 0.2808174
0.36957806 0.23944008 0.18868758 -0.23227018 -0.2984612 0.27371788 -0.25959367 0.42503834
-0.2766964 -0.15301883 -0.6234201 0.042283103 -0.46088463 0.15189272 0.33758244 0.45754588

linear1.bias f4 [256]
00000000: a729 d6bb 51af 22bd f8d3 883e c932 c33c
00000010: 4697 47be f3b3 9bbe 4c96 cd3d 9ead 0abe
00000020: a03b 79be cc0d 27be 05cc 0bbe 7770 0e3e
00000030: f42d 79be a14e b1be c3c9 20be 6901 0dbe
00000040: 7bc7 c5be d59b b5be e411 77bc 481f 88be
00000050: 0beb 76be 3914 36be d2f4 f93e 902a 1fbe
00000060: 73f2 01bc 71da d3be f441 2d3f 8095 fdbb
00000070: c530 62be 4840 a3be 5c3c 7b3e f167 15be
00000080: 68b0 6ebc 7555 a8be fd0e 943e 0619 b0be
00000090: 6c62 3dbe f6b0 a83b 3cb0 dcbb e7a0 70be
000000a0: 3e72 8fbe 3243 a23e aabc 98be 151e da3e
000000b0: cc68 153f 333c 83be b7a0 623e 4d32 e03d
000000c0: d686 8e3d 18c2 26be d2c0 a63d 60fc 673c
000000d0: a1fc 9abe c3db d33e 530b 18be d2d3 8fbe
000000e0: 600a 853c e9b9 803d 46c7 bdbd 6180 44bd
000000f0: 76b1 10bd 1583 7ebd 0cc5 523d 4849 d8bd
00000100: c3a4 02bd 2d75 eabd 25ab 40bd 841f 3ebd
00000110: ff23 e63d f0b2 b6bd 0ea2 263f 655d 46be
00000120: c9b2 543e e64e b4be bf0a 34bd 67ae 7c3e
00000130: 500e a23e d5f9 3ebe a5a1 9a3c 05ea 8fbd
00000140: 1495 4fbe 797b 7bbe 261e 5cbd 2621 d9bc
00000150: 2015 583e 8fe5 173e c8e8 373e c760 d8bd
00000160: 77dc 223d f1f2 aebe e18d b7be 8541 3c3d
00000170: e102 b3bd 4c5d b3be a015 cebc dc76 793c
00000180: b15a 07be fe9a 70be 1d7c 87be 463b 27be
00000190: 497a 04be 207c acbe b5ba a4be 1152 f3bb
000001a0: b9ec 6ebe 53c7 383e baf6 9b3e 0407 d03b
000001b0: 5c20 adbe 1b15 e23e fc8b 47be 4bec 3e3e
000001c0: 31fb fe3d 9d00 f9bd 4452 7dbe b80e 0f3e
000001d0: a514 44be 68c0 91bd 196f ab3d 26c2 2c3d
000001e0: 5c1e 373f 010d 983d cce4 d3bd 2598 65be
000001f0: 1773 34bb 4e82 adbe fcb9 c13d b447 96be
00000200: 28c0 5bbe d276 ebbd 36b2 493d 3be4 083d
00000210: 8b24 8bbe 456d 3cbe 3ddb dabe e597 673e
00000220: 52bb 37be ed2d 14be 6f77 2fbe 0b0d 70be
00000230: 3491 15be acf7 82bd 3138 cabd fe0c d6bd
00000240: bec4 273e 336c 39be 6777 0bbe 953c 09be
00000250: de42 33be c6a2 37be 586a 1bbc 89ef 7bbd
00000260: 1ce8 78be 7265 753d 3d9c 613e 6da4 f83c
00000270: 53a8 1abd 0032 a33e 0539 7bbe 14fa ddbd
00000280: e5f6 cf3c 80b7 90be 8f06 a63d 06f6 2a3f
00000290: ac87 89be 0306 63be bc9f 16bc b3bf 6abe
000002a0: 76c5 143b b05c 0abe 484c 14be 3106 28be
000002b0: e2c7 acbe 3506 2b3e 5a9c f73d 1328 89bd
000002c0: e51d abbe 6bbd c4bd 1df0 26be e6e8 a33a
000002d0: adff e23d 6a13 bebe 5c57 b73e 5bc7 cf3e
000002e0: a39f a4be abf4 69be b503 16bd c3cd d43d
000002f0: 1007 883c 0f06 6dbe 30df 9dbe 3496 de3d
00000300: 328f 2cbe 0137 6c3d 366b 013d 159d 7fbe
00000310: b973 13bd 2984 c53e babe d5bd b5be 5bbe
00000320: 4417 f3bd 3abe a3be 1203 5fbe c602 dcbd
00000330: 6404 ddbd 3b24 04be 5866 8dbd cee9 083f
00000340: ec1e 993d 82c6 fbbe 8f2d 67be ccac c73d
00000350: 5f05 7ebe 41bf 33be 18a3 11bd 1ad5 49be
00000360: 93fe 97be fb64 393e d90f 63be 0c76 efbe
00000370: a17f 8a3d 7315 b03b 785d a4be 7602 b13d
00000380: b37a 08bc 0128 0abe da1a 5ebd 4ccd 0abe
00000390: 1443 8e3e e8da 13be e5b4 a73e 9ef8 d9bd
000003a0: fce3 2b3c 1751 aabe 66ab 453e 5810 1bbe
000003b0: 54f8 753d 2c32 e0be c3e1 103e 9450 31be
000003c0: 080d 043f 39f6 79be 3ea7 453d 9387 c1be
000003d0: 163e 08be a092 8ebe 47ac 64bd 4738 af3d
000003e0: 8066 c73e f789 37bd b845 eb3d d737 cabd
000003f0: 2c0e 24be 2b90 a5be cbeb eb3e ce29 133d
-0.006535727 -0.039717976 0.2672422 0.023827927 -0.194913 -0.30410728 0.100384325 -0.13542792
-0.24339151 -0.16313857 -0.13652046 0.1391009 -0.24333936 -0.34630302 -0.15701966 -0.13770069
-0.38628754 -0.35470453 -0.015079949 -0.26586366 -0.241131 -0.17781152 0.48819596 -0.1554358
-0.00793134 -0.41377595 0.6767876 -0.007738769 -0.22088917 -0.3188498 0.24534744 -0.14590432
-0.014568426 -0.328777 0.28917685 -0.3439409 -0.18494576 0.0051480485 -0.006734876 -0.2349888
-0.28016847 0.3169189 -0.2983144 0.42601076 0.5836303 -0.25631866 0.2213162 0.10947094
0.06959312 -0.16284978 0.08142246 0.014159292 -0.30270866 0.41378602 -0.1484807 -0.28091294
0.016240299 0.062854595 -0.09266524 -0.047973994 -0.03532549 -0.06213673 0.05145745 -0.10560852
-0.03189541 -0.11448131 -0.047038216 -0.046416774 0.112373345 -0.08920848 0.65091026 -0.19371565
0.20771326 -0.35216445 -0.04395556 0.24675904 0.31651545 -0.18649991 0.018875906 -0.070270576
-0.20271713 -0.2455882 -0.05373969 -0.026505064 0.21101809 0.14833663 0.17959893 -0.10565334
0.039761033 -0.34169725 -0.35850433 0.04596092 -0.087407835 -0.35032117 -0.025156796 0.015226092
-0.1321819 -0.23496625 -0.26461878 -0.16331205 -0.12937273 -0.3368845 -0.32173696 -0.0074255546
-0.2333249 0.18044786 0.30461675 0.0063484926 -0.3381375 0.44156727 -0.19486994 0.18644826
0.12450255 -0.1215832 -0.24738413 0.13970459 -0.191485 -0.07116777 0.083707996 0.042177342
0.715307 0.07424355 -0.10346374 -0.2242132 -0.002753442 -0.33888477 0.09459302 -0.2935158
-0.2146002 -0.114972726 0.04924222 0.033420783 -0.27176318 -0.18401058 -0.4274539 0.22616537
-0.17942551 -0.14470644 -0.17135404 -0.23442475 -0.14606172 -0.06394896 -0.09873999 -0.10451697
0.16383645 -0.18107681 -0.13619767 -0.13402016 -0.17505977 -0.17933187 -0.009485804 -0.061507735
-0.24307293 0.0599112 0.22032256 0.030351842 -0.037758183 0.31874084 -0.2453347 -0.10838714
0.025386283 -0.28265 0.0810672 0.6678165 -0.26861322 -0.22170262 -0.009193357 -0.2292469
0.0022700704 -0.1351192 -0.14482224 -0.16408612 -0.33746248 0.16701587 0.120903686 -0.06697097
-0.33421245 -0.09606441 -0.16302533 0.0012505322 0.110839225 -0.37124187 0.35808837 0.40581784
-0.32153043 -0.2284724 -0.03662463 0.103908084 0.01660493 -0.23146842 -0.3083434 0.10868493
-0.168515 0.057669643 0.031596385 -0.24962266 -0.035999034 0.38577393 -0.10436769 -0.21459468
-0.11869672 -0.3198107 -0.21778515 -0.107427165 -0.10791853 -0.12904446 -0.06904286 0.5348176
0.07476601 -0.49174887 -0.22575973 0.09749755 -0.24806736 -0.17553426 -0.03555593 -0.19710198
-0.29686412 0.18104927 -0.22174014 -0.4676975 0.067626245 0.0053736507 -0.3210256 0.086430475
-0.008330035 -0.13491823 -0.054224826 -0.13554877 0.27785552 -0.14438975 0.327552 -0.10643123
0.010491367 -0.33264992 0.19303665 -0.15142953 0.060051277 -0.43788278 0.14148621 -0.17315894
0.51582384 -0.24410333 0.048255198 -0.37798747 -0.13304934 -0.2784624 -0.05582836 0.08555656
0.3894539 -0.044809308 0.11487907 -0.09873932 -0.16021031 -0.32336554 0.46078333 0.03592854

linear2.weight f4 [3, 256]
00000000: f160 b7be 7880 5b3e b945 153e d83d cb3c
00000010: 7ed3 98be c3ac c8be 93b8 ac3c ef27 69bd
00000020: 26ef 35be 8de7 c5bd f936 9b3e 37a5 ac3e
00000030: 4bad 11be 016c e0be 1258 cbbe ce5e 7f3d
00000040: 8318 efbb 1a1b d6be e64c 1e3e b66f 0cbf
00000050: 2f64 00bf dcf2 80bd 220c c33e 51d9 eebc
00000060: 0141 debb 912d 6ebe 32ef 963e b119 27bd
00000070: b5ac 903e 41da b9bc 671d e23d 7c07 56be
00000080: c4d4 483d d88e 3dbe e3d8 423e e133 cabc
00000090: a1ea 1dbe 760e e9be 20e0 bd3d 69bf 0abf
000000a0: 9788 cc3b d992 ec3e 6e55 0bbe 3d57 663e
000000b0: 9b3a aa3e d1d5 88be 6ed6 063e d98f d73d
000000c0: 3c78 ce3d ae13 c0be 6e7d 8e3d 2ed4 5c3a
000000d0: 68fe 64be 7461 973e 91ac c33e 0c0b adbe
000000e0: e495 943e a64d c4be 9899 20be 0f09 acbd
000000f0: ae3e 84be 6609 edbd fb9e 01be 8e7e 0fbf
00000100: ef69 bdbe a674 243e 9fbc 02be 15e5 4dbd
00000110: 8e5d 54be ce4b 513e dcfa 7e3e 4001 423e
00000120: 148f aa3e ec50 aebc 52d7 883c e4b8 b33d
00000130: 483b 683e 4227 c5bc d4f6 e1be 796e 963d
00000140: e80f 2ebe 7f1d 72be b51e 01bf 3103 51be
00000150: bd76 593e e3c6 213e 8498 063f 8c5c abbd
00000160: 47fc 8a3e 62a5 b5bd 465c abbe 0c17 9bbd
00000170: 0117 7cbd d160 433d 098f a7bd 4fa6 8ebd
00000180: f47b 75be dfa5 5abe c8df 3ebd 75b4 b9be
00000190: 430a 77bd c2de 05bd a1f2 8dbc dcc1 b7bc
000001a0: 788c 92be 0790 903e 2e8d 823e 77bd 7d3c
000001b0: 1662 93be bf32 613e 1cd1 a1be 4727 4b3e
000001c0: 0c5b d83e a906 df3b d11c c4be 91ef b7be
000001d0: f554 d8be a29f 7b3c 901a 963d 8d7d 5fbd
000001e0: 2c29 093f b754 04bf 4d14 5fbe 1ebc c9bc
000001f0: 8e01 483e 193f f5bb dac4 ad3e fe4f acbe
00000200: d65a 5cbe 1913 c3bd 1fb3 50be 4425 b43d
00000210: 1083 61bd 4fab 0fbd d716 a2bd e559 7d3e
00000220: d41c 32bf 457c 3cbf 4cda 58bd f917 58be
00000230: 5277 98be 9ba5 d9bd 8329 13be 7870 563d
00000240: 20ff 283f 2b58 7e3c 483b c3be 5af7 30be
00000250: 63f2 b4bd d161 d0be 70d7 a53e 1689 fe3d
00000260: 245b 60be 03fc 6a3c 764d 8c3e 064a 46be
00000270: baae 6fbc cf72 fa3e b948 78be dd3c c7be
00000280: 68b6 59bd 7ca0 0fbd 0c1a 3d3e 66ff 0c3f
00000290: 2cc6 e2be b53e 37bd 8f90 16bf 236d 82bd
000002a0: b8ef 043d 8f44 253d 7a4d bfbc 2600 5abd
000002b0: 6726 8bbe 1ed0 a03e 6546 db3d 03b8 a4be
000002c0: 9014 23be 9f0e c93c 4692 d4be 6d64 033e
000002d0: e7bc 533d 691c 8cbe 36f9 093e 2a99 bc3d
000002e0: 1e0a 00be 2fd4 5a3d 5383 efbe 1643 f83d
000002f0: 7420 483d 076f f4bd 600a 94be f601 203e
00000300: bd90 2ebe c917 0abf 2fcf acbe 6929 f6bd
00000310: db89 97bd 5b4d 4d3e e10d bb3e 29e5 92be
00000320: 447a 043e e6d3 773c 4c18 2f3e 2c53 ebbe
00000330: 6ce8 71be 3acd c43b 6ba9 d8bc a6a0 053f
00000340: 79b3 21bc 7573 c2be dd5a a73e f6dc 823c
00000350: 0d9d 19be bda1 c1be 68a5 383e b1cb 22be
00000360: 6471 5ebe 2386 3d3e f2fc 88be 4c49 95be
00000370: a7de 633e 0a16 a63e 3a2e afbc 6fb8 07be
00000380: f779 b63d 2654 1cbe 1c29 33be 423b d73d
00000390: b799 e03e 0388 dcbd d97b c23e d46f 9c3e
000003a0: 4071 733e 178e cabb b376 b83e 7d4f 6bbe
000003b0: 9d75 f1be bae9 b7bd 7e29 df3d de92 19bd
000003c0: 5d04 8f3e fc52 4abe 6e84 9bbe 238b 99bc
000003d0: 45e0 b0be 95f7 e63d 4c8b 21bf 3303 b03d
000003e0: 7d4d df3e 27f6 d3bd f78a 323e 1e92 96be
000003f0: 5dfb b33d 096b 30bc 9767 b73e 8088 fc3d
-0.35816148 0.21435726 0.14577378 0.024809763 -0.29848856 -0.39194307 0.021084106 -0.05692285
-0.17767009 -0.096633054 0.30315378 0.337198 -0.14226262 -0.438324 -0.3971563 0.062346272
-0.007296623 -0.41817552 0.15459022 -0.5485796 -0.5015287 -0.06296322 0.38095194 -0.029156359
-0.0067826514 -0.2325957 0.29479367 -0.040795986 0.28256765 -0.02268708 0.11040764 -0.20901293
0.049031034 -0.18511522 0.19028048 -0.02468294 -0.15421535 -0.45518845 0.09271264 -0.5419832
0.0062418687 0.46205786 -0.13606808 0.22494216 0.33247837 -0.2672563 0.13167736 0.10525484
0.10081527 -0.37515014 0.069575176 0.0008423951 -0.22362673 0.29566538 0.38217595 -0.3379749
0.29020607 -0.3834049 -0.15683591 -0.08400165 -0.2582907 -0.11574058 -0.12658302 -0.5605248
-0.36994883 0.16060123 -0.12767266 -0.050267298 -0.20738813 0.20439073 0.24900383 0.1894579
0.33312285 -0.021278821 0.016704235 0.087754995 0.22678864 -0.024066571 -0.44133627 0.0734529
-0.16998255 -0.23644064 -0.5043748 -0.20411374 0.21236701 0.15798526 0.5257647 -0.08367261
0.27145597 -0.08869435 -0.33468837 -0.07572755 -0.061545376 0.047699753 -0.08181579 -0.069653146
-0.23973066 -0.21352337 -0.046600133 -0.3627049 -0.06031252 -0.03268314 -0.017327609 -0.022431307
-0.28622794 0.28234884 0.25498337 0.0154870665 -0.2878577 0.21992014 -0.3160485 0.19839202
0.42256963 0.006806214 -0.38303235 -0.35924962 -0.42252317 0.015357884 0.07329285 -0.054563094
0.5357845 -0.51691765 -0.21785088 -0.024625834 0.19531843 -0.0074843285 0.33939248 -0.3365478
-0.21519026 -0.09525127 -0.2038083 0.0879617 -0.05505663 -0.035075482 -0.079145126 0.24741323
-0.6957524 -0.7362712 -0.05294256 -0.21102895 -0.29778534 -0.1062729 -0.14371304 0.052353352
0.6601429 0.015523951 -0.38131166 -0.17281857 -0.08835294 -0.40699628 0.32390928 0.12428491
-0.21909767 0.014342311 0.27402848 -0.19364175 -0.01462906 0.48915717 -0.24246491 -0.38913622
-0.05315247 -0.03506516 0.18466967 0.5507721 -0.44291818 -0.044737536 -0.5881433 -0.063684724
0.032455176 0.040348586 -0.023352373 -0.053222798 -0.27177736 0.3140878 0.10706786 -0.3217164
-0.15925813 0.024543105 -0.41517848 0.12831278 0.051693823 -0.27365425 0.13473973 0.09208901
-0.1250386 0.05342501 -0.4677988 0.121221706 0.048859075 -0.11935239 -0.28914165 0.15625748
-0.17047401 -0.53942543 -0.3375182 -0.12019617 -0.07399341 0.2004904 0.36534026 -0.2869046
0.12937266 0.015126204 0.17099112 -0.45961893 -0.23623818 0.00600591 -0.026447972 0.52198255
-0.00986945 -0.37978712 0.3268651 0.015974503 -0.15001316 -0.3781871 0.18031847 -0.15898015
-0.21722943 0.185082 -0.26755482 -0.29157484 0.22252904 0.3243869 -0.021384347 -0.1325395
0.08909982 -0.15266475 -0.1749615 0.105093494 0.43867275 -0.1076813 0.37985113 0.30554068
0.2377367 -0.006181489 0.3602806 -0.22979541 -0.47160044 -0.08980127 0.10896586 -0.03749358
0.27933016 -0.19758219 -0.30374473 -0.018743103 -0.34546104 0.11277691 -0.63103175 0.0859436
0.43613806 -0.10349684 0.17435823 -0.29408354 0.08788178 -0.010767707 0.3582122 0.12330723

linear2.bias f4 [3]
00000000: e544 6c3e f847 c1bc 2fcc 863d
0.23073156 -0.023593888 0.06581914
